best_model.pt (torch, 204521 bytes, 9 tensors)

lstm.weight_ih_l0 f4 [256, 1]
0.12079134 -0.08419966 0.23168702 0.07936685 -0.019892665 0.12760665 0.29994532 0.24359581
0.2632515 0.027531128 0.14101812 0.11606783 -0.008851477 -0.034343645 -0.031685986 -0.0027865637
-0.11507903 0.16712028 0.10339767 0.02227234 0.18552098 0.05485156 0.12014485 -0.008038541
-0.26597378 0.1368186 0.19386007 0.068165876 0.13272582 -0.13662823 -0.1495003 0.023126807
0.21732363 0.059182014 0.12577736 0.023261229 0.22660497 0.48242188 -0.19282122 -0.06719437
0.009984074 0.20138033 0.034137122 0.11279317 0.080501825 0.18317509 0.19689822 -0.03358291
0.046499267 0.02110956 -0.20104462 0.19783843 -0.016876796 0.098684356 -0.050264634 0.1105576
0.17521356 0.017045083 0.07285668 0.16600922 0.018735535 0.08764314 -0.0860751 -0.102180414
0.1264288 0.08686471 0.20342402 0.10450999 0.1637484 -0.018093977 -0.13888034 0.06409423
0.18853937 0.16281797 -0.25175798 0.14914484 -0.017389651 -3.3801985e-05 0.17710829 -0.05538273
-0.12210114 0.19512896 -0.04676402 -0.05126784 0.21932267 -0.10830411 0.11821403 0.017444827
-0.3021336 0.064975984 0.20672868 0.1679616 0.019692201 -0.14269765 -0.10208004 0.06961673
0.14454669 0.0112279635 -0.044397518 -0.103592865 0.13131751 0.3424724 -0.046979982 0.11603635
-0.086058855 0.1399759 0.15622327 0.14270255 -0.21898496 0.1716228 0.26212525 0.16485423
-0.03266541 0.2293235 -0.069540784 0.11506351 -0.20294324 -0.0599316 0.02823204 0.16718706
0.01607563 0.06396019 0.08159972 0.012204089 0.044077016 0.05782774 -0.22853197 -0.07399378
-0.2156231 0.032568295 -0.25803733 0.25282684 0.04347827 -0.21930057 0.23569028 0.23961553
-0.27058896 -0.179089 0.3697892 -0.13120227 -0.066787794 -0.13654597 0.18985866 -0.20886417
-0.11446808 0.24161418 -0.08385671 -0.2026974 0.24018136 -0.35270473 0.2874283 0.13577625
-0.20473738 -0.30881608 0.18477206 0.24434243 -0.16430996 0.08644796 0.007404913 -0.0044325115
0.26560518 0.2085785 -0.032505974 -0.19029337 -0.316274 0.43830964 -0.12057827 0.11925044
0.17134108 0.26062265 -0.16450103 0.24164817 0.29497385 -0.25581378 0.2917113 0.19625421
-0.10021068 0.23756452 -0.1425136 -0.20216224 -0.052387312 0.09562664 0.07637329 -0.23872857
-0.18804117 -0.08114852 0.296211 0.14307268 -0.032142628 -0.07199474 0.15628903 -0.08310781
0.18666941 0.08181188 0.23777358 0.103708625 0.12688787 0.105525695 0.19103156 0.14204037
0.38633665 0.18409258 0.17525208 0.14073645 0.04557576 0.02399131 0.18432568 0.09062641
-0.082309924 0.20163311 0.17298041 -0.104532346 0.08764086 0.06911641 0.119922146 -0.12739138
-0.4138142 0.18469086 0.1081611 0.14149298 0.09055552 -0.1097571 0.059295833 0.009373966
0.15329877 0.17034066 0.0014082433 -0.18774754 0.15542413 0.518268 -0.058454342 0.14382839
0.12351834 0.13989468 0.112345874 0.23855817 -0.0679542 0.2705647 0.2756108 0.12851003
0.012690658 0.1934579 -0.072714515 0.30431923 -0.19304815 -0.051491626 -0.18715484 0.26519716
0.20567282 -0.052968316 0.16830805 0.19286785 -0.09238602 0.1428793 -0.08950745 -0.09713625
00000000: 7361 f73d df70 acbd 5d3f 6d3e 168b a23d
00000010: f1f5 a2bc 51ab 023e 6f92 993e 2e71 793e
00000020: e7c8 863e f688 e13c 0e67 103e f8b4 ed3d
00000030: c905 11bc ecab 0cbd 2ac9 01bd c89e 36bb
00000040: 8eae ebbd 9421 2b3e 28c2 d33d 7b74 b63c
00000050: 36f9 3d3e 08ac 603d 810e f63d 16b4 03bc
00000060: b72d 88be 2d1a 0c3e 4183 463e 8d9a 8b3d
00000070: 47e9 073e 45e8 0bbe 9b16 19be 6e74 bd3c
00000080: 168a 5e3e d768 723d c8cb 003e 558e be3c
00000090: 220b 683e 0000 f73e ed72 45be 349d 89bd
000000a0: 3e94 233c a536 4e3e 5ed3 0b3d 1b00 e73d
000000b0: 24de a43d 4092 3b3e b09f 493e 3c8e 09bd
000000c0: 0476 3e3d f5ed ac3c a4de 4dbe 2896 4a3e
000000d0: 3541 8abc 061b ca3d 4ae2 4dbd 066c e23d
000000e0: 2f6b 333e 21a2 8b3c e235 953d 52fe 293e
000000f0: 447b 993c 3f7e b33d 2448 b0bd f743 d1bd
00000100: 8d76 013e 20e6 b13d 634e 503e 5509 d63d
00000110: a9ad 273e d239 94bc a636 0ebe d643 833d
00000120: 7710 413e c1b9 263e 6ce6 80be 6db9 183e
00000130: be74 8ebc 9bc6 0db8 e05b 353e 00d9 62bd
00000140: 2a10 fabd e3cf 473e a18b 3fbd 3afe 51bd
00000150: 1f96 603e 8cce ddbd 331a f23d 74e8 8e3c
00000160: 41b1 9abe 2112 853d afb0 533e 20fe 2b3e
00000170: 8a51 a13c 551f 12be 570f d1bd 3793 8e3d
00000180: 0c04 143e 7ef5 373c 2cda 35bd 7f28 d4bd
00000190: 1978 063e 8b58 af3e 156e 40bd 77a4 ed3d
000001a0: a03f b0bd d855 0f3e fef8 1f3e 9e20 123e
000001b0: 983d 60be e3bd 2f3e 4835 863e 8ccf 283e
000001c0: 2acc 05bd c8d3 6a3e 666b 8ebd 6ba6 eb3d
000001d0: 5ad0 4fbe d67a 75bd e146 e73c 1633 2b3e
000001e0: 0ab1 833c 8ffd 823d c11d a73d a9f3 473c
000001f0: 1a8a 343d c8dc 6c3d 4904 6abe 0d8a 97bd
00000200: 4dcc 5cbe 5566 053d 781d 84be 8572 813e
00000210: 4516 323d 5490 60be cb58 713e c65d 753e
00000220: a38a 8abe 1b63 37be 0355 bd3e e359 06be
00000230: 0ac8 88bd b5d2 0bbe 4f6a 423e 7de0 55be
00000240: 3e6e eabd b569 773e 11bd abbd e88f 4fbe
00000250: 1af2 753e b795 b4be cd29 933e ee08 0b3e
00000260: ada6 51be 241d 9ebe e334 3d3e e734 7a3e
00000270: df40 28be a10b b13d eaa4 f23b 9a3e 91bb
00000280: 67fd 873e 9a95 553e fc24 05bd 44dc 42be
00000290: aaee a1be 1f6a e03e bdf1 f6bd 9339 f43d
000002a0: 0974 2f3e 5570 853e f572 28be 9e72 773e
000002b0: d006 973e 06fa 82be 2f5b 953e ddf6 483e
000002c0: 423b cdbd 1d44 733e 16ef 11be 9e03 4fbe
000002d0: 1494 56bd e6d7 c33d 9969 9c3d 4375 74be
000002e0: dd8d 40be 3231 a6bd f8a8 973e a581 123e
000002f0: fda7 03bd fa71 93bd 3b0a 203e 6d34 aabd
00000300: 4426 3f3e fd8c a73d eb7a 733e 3065 d43d
00000310: e5ee 013e db1d d83d c79d 433e 0873 113e
00000320: ebcd c53e c482 3c3e 4875 333e 371d 103e
00000330: a6ad 3a3d 6c89 c43c dfbf 3c3e 579a b93d
00000340: 1b92 a8bd e978 4e3e c721 313e 0e15 d6bd
00000350: 0d7d b33d e88c 8d3d be99 f53d e372 02be
00000360: 74df d3be 9a1f 3d3e 9183 dd3d 89e3 103e
00000370: 2c75 b93d 55c8 e0bd 30e0 723d 4395 193c
00000380: 5afa 1c3e c86d 2e3e ce94 b83a e440 40be
00000390: 8127 1f3e 36ad 043f d26d 6fbd c047 133e
000003a0: 2ff7 fc3d 8d40 0f3e 9815 e63d 9848 743e
000003b0: 922b 8bbd 7587 8a3e dc1c 8d3e 2298 033e
000003c0: 7aec 4f3c d419 463e 59eb 94bd bbcf 9b3e
000003d0: 6aae 45be e2e8 52bd 85a5 3fbe ecc7 873e
000003e0: e59b 523e 4ef5 58bd f258 2c3e 267f 453e
000003f0: e234 bdbd f44e 123e af4f b7bd 5fef c6bd

lstm.weight_hh_l0 f4 [256, 64]
-0.08944477 0.15365449 0.0047711786 0.009211281 0.08053704 -0.15447304 -0.13782638 -0.016448619
0.03266184 -0.046555705 -0.2358446 -0.09441522 0.043389227 0.16290465 0.16382785 0.050359394
-0.020277703 0.04004409 0.033677377 0.09233143 0.06070134 0.013751818 -0.02420226 0.013266844
0.132159 -0.062199585 0.07052066 0.01623991 -0.12531462 0.023335304 -0.01961344 0.06555404
-0.08286541 -0.0058339513 -0.054228704 0.034661658 0.087979816 0.087317124 0.08140006 -0.0376839
0.0069363997 0.026094688 0.021171276 0.056771964 -0.16415857 -0.099288374 0.15668872 0.07416182
0.009792126 0.10462286 0.16591549 0.04330265 0.41336408 0.10686852 -0.04334494 -0.14938235
0.022838248 -0.0113654705 0.027337784 -0.017454611 -0.09492524 0.0055288216 -0.017671376 -0.05391883
0.12490753 -0.11996772 0.03921954 -0.14618921 -0.06410083 0.02315531 0.010836927 -0.13311645
0.15062527 0.06986822 -0.047998648 -0.10224153 -0.020803824 -0.07857142 -0.017400855 -0.1585684
-0.11173792 0.016509742 -0.07974356 0.09883676 0.062410172 0.21443158 -0.082450576 -0.057677228
-0.063646175 0.1526166 0.0408469 -0.17188656 -0.012563866 0.0763925 0.028277706 -0.009526076
-0.13376425 0.08580875 0.097925425 0.078795314 0.108095296 -0.09082507 0.043094378 -0.09755648
0.0074950517 -0.05417249 0.021416688 -0.19884554 -0.096149124 -0.01971992 -0.07853952 -0.014590012
0.09390213 -0.011603948 -0.0613057 0.13438693 0.23782025 -0.023693454 -0.015867487 -0.03551459
0.02626789 -0.05981699 -0.023257658 -0.094480485 0.00339789 -0.021822445 -0.051240552 -0.036187854
-0.10886234 -0.004479067 -0.07747117 -0.039250962 0.11719968 -0.05307326 0.13671155 0.007155902
-0.038103256 0.02264826 -0.08855506 -0.07227794 0.042967137 -0.040533107 0.004751657 0.111182325
-0.044055454 0.053170457 -0.051984347 -0.21086651 0.10587528 0.24388918 -0.08126976 0.047943715
0.21148963 0.04847399 0.08470365 0.12709406 -0.07191723 -0.12074497 0.15905361 -0.062133014
-0.029530354 0.108088024 0.05670915 0.19771114 -0.086220354 0.18164107 0.13639401 -0.0028879882
0.03376763 0.10364146 -0.029298352 0.043866128 -0.21652187 -0.07479706 0.015443666 0.018465308
0.0037971304 -0.002664561 0.1431689 0.022216069 0.31444865 -0.035125382 0.1886364 0.025193876
0.046700917 0.051292986 0.06950823 -0.022218363 -0.123859525 -0.025554594 -0.16821557 0.04491163
-0.22976834 0.13456276 -0.2866952 0.15857525 0.052311897 -0.09641745 0.023885287 0.056705706
-0.1942637 -0.08139658 -0.16785832 -0.15833849 -0.08110898 0.13464613 0.16283692 -0.013573991
0.032523107 0.27198872 -0.071390025 -0.07772607 0.17162262 0.12465775 0.095219396 0.23476973
0.37735778 -0.11282167 0.14697172 0.013988644 -0.2314569 -0.18954173 0.071419 -0.0678593
-0.005029212 0.16957243 -0.04469809 0.15605831 -0.25126344 0.3068506 0.25928834 0.09369926
0.16562662 0.15826733 -0.013975109 0.23723611 -0.000130893 -0.062284194 0.2798755 0.21352252
0.23982877 0.041903593 0.12686251 -0.06263554 0.97550654 0.040498085 0.24126598 -0.30430877
0.014261747 0.249247 0.15891105 0.16494916 -0.13465495 0.051982667 -0.17091179 0.1799263
00000000: d22e b7bd 9a57 1d3e 8c57 9c3b eaea 163c
00000010: 9bf0 a43d 2e2e 1ebe 5c22 0dbe 41bf 86bc
00000020: 6cc8 053d 32b1 3ebd 3f81 71be c45c c1bd
00000030: e7b8 313d 7ad0 263e 7dc2 273e a745 4e3d
00000040: 6d1d a6bc 4605 243d 4af1 093d 4318 bd3d
00000050: f8a1 783d 4e4f 613c d143 c6bc 2d5d 593c
00000060: b054 073e fec4 7ebd 236d 903d 8f09 853c
00000070: 7a52 00be ae29 bf3c 5dac a0bc 3241 863d
00000080: 57b5 a9bd bb2a bfbb eb1e 5ebd 62f9 0d3d
00000090: c32e b43d 52d3 b23d 13b5 a63d 6f5a 1abd
000000a0: bd4a e33b 87c4 d53c 626f ad3c b889 683d
000000b0: 2f19 28be b457 cbbd 0273 203e 27e2 973d
000000c0: 276f 203c 8344 d63d c0e5 293e 1f5e 313d
000000d0: 75a4 d33e e2dd da3d 778a 31bd b0f7 18be
000000e0: 4717 bb3c 3d36 3abc 7df3 df3c f9fc 8ebc
000000f0: 2a68 c2bd 1e2b b53b 90c3 90bc fed9 5cbd
00000100: 85cf ff3d a3b1 f5bd aba4 203d a0b2 15be
00000110: 4c47 83bd 34b0 bd3c 5e8d 313c ae4f 08be
00000120: 833d 1a3e 1217 8f3d 3b9a 44bd 0264 d1bd
00000130: c86c aabc 0dea a0bd 3d8c 8ebc c15f 22be
00000140: dad6 e4bd 703f 873c 9750 a3bd ed6a ca3d
00000150: cfa1 7f3d f493 5b3e d9db a8bd f53e 6cbd
00000160: ed58 82bd 8747 1c3e 144f 273d 0803 30be
00000170: acd8 4dbc ac73 9c3d a6a6 e73c 4213 1cbc
00000180: 7ff9 08be 7fbc af3d 208d c83d 705f a13d
00000190: 1161 dd3d 7f02 babd bb83 303d b1cb c7bd
000001a0: 0d99 f53b f9e3 5dbd 0d72 af3c 2a9e 4bbe
000001b0: d5e9 c4bd ab8b a1bc 54d9 a0bd f20a 6fbc
000001c0: c34f c03d 7c1e 3ebc b01b 7bbd ba9c 093e
000001d0: 2787 733e c618 c2bc 88fc 81bc bf77 11bd
000001e0: c22f d73c a902 75bd d886 bebc fc7e c1bd
000001f0: 22af 5e3b fcc4 b2bc 9de1 51bd b739 14bd
00000200: 38f3 debd 23c5 92bb 34a9 9ebd 9ec5 20bd
00000210: 6306 f03d 5963 59bd 1dfe 0b3e 0f7c ea3b
00000220: 2912 1cbd d888 b93c 5b5c b5bd 7506 94bd
00000230: 4ffe 2f3d 0b06 26bd cab3 9b3b 8fb3 e33d
00000240: 7e73 34bd 44c9 593d 8aed 54bd 64ed 57be
00000250: 24d5 d83d 16be 793e c370 a6bd a160 443d
00000260: bd90 583e aa8c 463d 1b79 ad3d f224 023e
00000270: 5749 93bd 2449 f7bd f3de 223e 307f 7ebd
00000280: a4e9 f1bc 415d dd3d db47 683d ca74 4a3e
00000290: 4c94 b0bd 1e00 3a3e dfaa 0b3e 6744 3dbb
000002a0: ed4f 0a3d f941 d43d 1903 f0bc f8ac 333d
000002b0: e9b7 5dbe 332f 99bd 6e07 7d3c 8f44 973c
000002c0: 47d9 783b ea9f 2ebb de9a 123e 79fe b53c
000002d0: 6aff a03e a2df 0fbd e729 413e 6363 ce3c
000002e0: 7649 3f3d 9818 523d 555a 8e3d 4903 b6bc
000002f0: 10aa fdbd de57 d1bc b440 2cbe 42f5 373d
00000300: 6448 6bbe d2ca 093e b7c9 92be 8d61 223e
00000310: 0045 563d 8376 c5bd 14ab c33c 3e44 683d
00000320: 10ed 46be 40b3 a6bd 0de3 2bbe 7c23 22be
00000330: 771c a6bd ade0 093e b9be 263e 7265 5ebc
00000340: f336 053d 1b42 8b3e ef34 92bd d92e 9fbd
00000350: d7bd 2f3e 904c ff3d 6302 c33d 7a67 703e
00000360: 0a35 c13e 0c0f e7bd c17f 163e a030 653c
00000370: 0a03 6dbe 3a17 42be 2044 923d d1f9 8abd
00000380: 17cc a4bb 65a4 2d3e 5815 37bd c0cd 1f3e
00000390: 9aa5 80be 861b 9d3e 71c1 843e 66e5 bf3d
000003a0: 069a 293e d510 223e dbf7 64bc 06ee 723e
000003b0: 5240 09b9 b61d 7fbd d74b 8f3e a6a5 5a3e
000003c0: ac95 753e 1aa3 2b3d 3fe8 013e 1047 80bd
000003d0: ccba 793f 52e1 253d 6e0e 773e 5cce 9bbe
000003e0: 1aaa 693c 9b3a 7f3e 94b9 223e 6fe8 283e
000003f0: fde2 09be c7eb 543d 8003 2fbe 9a3e 383e

lstm.bias_ih_l0 f4 [256]
0.093511865 -0.072312966 0.13164508 0.06848308 -0.11503993 -0.03220851 0.21620062 0.025973339
0.18389907 0.03323568 0.33986148 -0.086093046 -0.03421757 0.050782014 -0.02572494 -0.02667575
-0.11097371 0.122881755 0.071527176 0.12467026 0.13485606 0.38511086 0.13874175 -0.0039770915
0.21137485 0.18737787 0.083155476 0.09764602 -0.09992464 -0.1436417 -0.00046617613 -0.034822017
0.15499304 0.03964424 0.09068186 0.021964926 0.24630244 0.21718891 0.0293028 0.007718477
0.09876956 0.10402104 0.08239233 0.0997849 0.05448826 -0.05504889 0.107689545 0.030141378
-0.03709142 -0.036584046 0.08229637 -0.027489964 0.2499736 -0.093128316 0.013249651 0.039270338
0.025870869 -0.104036994 0.10894198 -0.054726355 -0.06749132 0.0148654515 -0.1115552 -0.09826552
-0.054552097 -0.06618015 -0.13067262 -0.028948372 -0.082801946 0.09291739 0.034235455 0.10575528
0.060271207 0.020401241 0.069087796 0.005709638 -0.018226577 -0.09318475 -0.011015236 0.05550423
-0.07234244 0.06774893 -0.01750345 -0.09169639 -0.113177806 -0.08686855 0.072868064 -0.0718971
0.09989436 0.029007647 -0.101617284 0.050443597 -0.14463083 0.06656541 0.032794144 -0.14841458
0.027191998 -0.053204183 0.073841535 -0.15773898 -0.117475994 -0.07438683 -0.06798252 0.037598316
-0.13248129 -0.08006876 -0.15202148 0.08699886 -0.12716578 0.110931955 -0.036650963 -0.016466113
-0.16241638 -0.022924934 -0.026293147 0.010455191 0.21253297 -0.08464135 -0.06662687 0.0038602373
-0.11763963 -0.029067243 0.017548464 -0.14081734 -0.085510865 -0.00658347 -0.11083192 -0.10168692
0.0019260431 0.064271964 0.02641096 -0.017046528 0.08336395 -0.054365914 -0.11448178 -0.021230936
-0.052333083 0.13149178 -0.016829966 -0.027227873 -0.05424236 0.025082543 -0.042299755 0.03513782
-0.00910878 -0.08740174 -0.069432266 -0.060369004 0.03373047 0.10926143 0.06540836 -0.07096093
0.057465684 -0.045851823 -0.0515716 0.08857929 -0.06118402 -0.04498516 -0.06505958 -0.0009325335
-0.06342464 -0.028965501 -0.055612955 0.07892944 0.07742756 0.066853486 0.067451954 0.044451155
-0.025739945 -0.077143505 0.035663527 0.07170087 -0.06333632 0.111113586 -0.09342814 -0.061201956
0.09916812 0.017702967 -0.020030508 -0.025856145 0.1126655 -0.043194637 0.049893603 0.044063088
0.116070084 0.09139179 0.07437079 0.08170179 -0.08883897 0.09397656 -0.08607306 0.036050193
0.11674513 0.054925103 0.028903611 0.10438651 -0.0022751144 0.108546235 0.1574715 -0.052396055
0.13189884 0.0276092 0.3433922 -0.14155425 0.016439032 0.007742943 -0.054448027 0.08032931
0.06774983 0.12682402 -0.07431947 0.06226084 -0.0047448655 0.24183951 0.1853773 -0.073695086
0.15126124 0.037084445 0.09852804 0.0730105 0.018300874 -0.08535227 -0.104283825 -0.0870977
0.13682891 -0.03931656 -0.04501981 -0.058610607 0.33879116 0.25115058 0.008481014 0.060892098
0.040822133 -0.0091425115 0.021134501 0.1973956 0.18631582 -0.06902436 0.15891881 0.11131545
0.021965474 0.045681827 -0.063416414 0.1534974 0.25683978 0.04132854 -0.15226515 0.19971183
-0.060881473 0.03339846 0.17991313 0.123721436 0.057998747 -0.008747897 -0.0064717284 -0.13468793
00000000: 2683 bf3d d218 94bd f8cd 063e db40 8c3d
00000010: 0e9a ebbd 12ed 03bd b263 5d3e 0ac6 d43c
00000020: 0a50 3c3e 2322 083d 5302 ae3e 8d51 b0bd
00000030: b927 0cbd cd00 503d 1cbd d2bc 1a87 dabc
00000040: 2f46 e3bd 6ea9 fb3d d77c 923d 1f53 ff3d
00000050: b517 0a3e 402d c53e 5112 0e3e 4352 82bb
00000060: a672 583e fcdf 3f3e 6b4d aa3d a3fa c73d
00000070: 4aa5 ccbd cf16 13be 1a69 f4b9 88a1 0ebd
00000080: 7fb6 1e3e 0062 223d 69b7 b93d caef b33c
00000090: b536 7c3e c566 5e3e 6d0c f03c 47eb fc3b
000000a0: b247 ca3d fc08 d53d 4fbd a83d 075c cc3d
000000b0: 152f 5f3d f27a 61bd 568c dc3d 0deb f63c
000000c0: 2ced 17bd 27d9 15bd 008b a83d a232 e1bc
000000d0: 14f9 7f3e 0fba bebd 1015 593c efd9 203d
000000e0: 25ef d33c 5911 d5bd f91c df3d be28 60bd
000000f0: e438 8abd 398e 733c 0d77 e4bd 6f3f c9bd
00000100: 0572 5fbd 7589 87bd 0bcf 05be 2325 edbc
00000110: 1194 a9bd 794b be3d 7a3a 0c3d 3996 d83d
00000120: f1de 763d 8120 a73c e77d 8d3d ea17 bb3b
00000130: e74f 95bc a5d7 bebd 4079 34bc 6758 633d
00000140: 4628 94bd f3bf 8a3d 6563 8fbc 51cb bbbd
00000150: c4c9 e7bd 23e8 b1bd da3b 953d c93e 93bd
00000160: 6a95 cc3d 72a1 ed3c b91c d0bd f29d 4e3d
00000170: 1b1a 14be 7253 883d 2753 063d fef9 17be
00000180: c1c1 de3c a1ec 59bd 3b3a 973d 5486 21be
00000190: 4197 f0bd 1f58 98bd 6b3a 8bbd b100 1a3d
000001a0: 2da9 07be 17fb a3bd 85ab 1bbe 752c b23d
000001b0: bf37 02be 4b30 e33d 521f 16bd f1e3 86bc
000001c0: 7b50 26be 12cd bbbc ba64 d7bc 404c 2b3c
000001d0: 3ea2 593e 7258 adbd ab73 88bd 09fc 7c3b
000001e0: 0ced f0bd 6d1e eebc ccc1 8f3c 6c32 10be
000001f0: 5220 afbd 26ba d7bb d8fb e2bd 3b41 d0bd
00000200: 4873 fc3a 05a1 833d cc5b d83c 29a5 8bbc
00000210: b8ba aa3d cbae 5ebd 6c75 eabd 80ec adbc
00000220: 375b 56bd c8a5 063e ffde 89bc fd0c dfbc
00000230: 3d2d 5ebd e879 cd3c 8242 2dbd adec 0f3d
00000240: fe3c 15bc afff b2bd 8132 8ebd 7d45 77bd
00000250: f628 0a3d 75c4 df3d d1f4 853d f753 91bd
00000260: 2361 6b3d 1fcf 3bbd be3c 53bd 0f69 b53d
00000270: 189c 7abd 5c42 38bd f53d 85bd 4475 74ba
00000280: c7e4 81bd 0f49 edbc 69ca 63bd c2a5 a13d
00000290: 5792 9e3d 7bea 883d 4024 8a3d 6a12 363d
000002a0: 94dc d2bc 6afd 9dbd eb13 123d e8d7 923d
000002b0: 79b6 81bd 858f e33d 4157 bfbd e7ae 7abd
000002c0: a818 cb3d d005 913c 0517 a4bc 44d0 d3bc
000002d0: 2bbd e63d dcec 30bd 3c5d 4c3d 7f7b 343d
000002e0: 27b6 ed3d 9e2b bb3d b64f 983d 4553 a73d
000002f0: 35f1 b5bd c876 c03d 1347 b0bd 5ea9 133d
00000300: 1218 ef3d 25f9 603d 44c7 ec3c 98c8 d53d
00000310: 161a 15bb 7d4d de3d 3540 213e 3f9d 56bd
00000320: 7d10 073e b02c e23c 1ad1 af3e 99f3 10be
00000330: 26ab 863c 83b8 fd3b e504 5fbd b183 a43d
00000340: 6cc0 8a3d 28de 013e ce34 98bd 3905 7f3d
00000350: d17a 9bbb c7a4 773e 8cd3 3d3e 73ed 96bd
00000360: 3ae4 1a3e dce5 173d 12c9 c93d 8786 953d
00000370: b7eb 953c 2ccd aebd c292 d5bd 4760 b2bd
00000380: e11c 0c3e 670a 21bd b166 38bd ad11 70bd
00000390: 0976 ad3e cf96 803e f3f3 0a3c fe69 793d
000003a0: 1c35 273d 79ca 15bc 4322 ad3c 1222 4a3e
000003b0: 93c9 3e3e a55c 8dbd 9dbb 223e 5bf9 e33d
000003c0: f0f0 b33c de1c 3b3d 77e0 81bd 6c2e 1d3e
000003d0: 8180 833e 1d48 293d 65eb 1bbe 4281 4c3e
000003e0: da5e 79bd d3cc 083d 263b 383e aa61 fd3d
000003f0: 1890 6d3d 5753 0fbc cb10 d4bb a2eb 09be

lstm.bias_hh_l0 f4 [256]
0.0070539997 -0.084476665 0.14310065 0.19618438 -0.1421242 0.058986668 0.24020255 -0.033767115
0.21248285 -0.10996042 0.4087692 -0.11608744 0.023770522 -0.005669063 -0.05858626 -0.024540031
0.0506833 0.0047056833 0.060024887 0.08875454 -0.082715236 0.28147894 0.18209527 -0.016058804
0.035158798 0.1926638 0.10103331 -0.0743896 0.11125299 -0.08958197 -0.068717025 -0.04070748
0.07689794 -0.06103489 0.06791522 -0.04708849 0.16611727 0.32763588 -0.16669244 0.039500415
-0.03478912 0.14828776 -0.11634638 0.17181668 0.1160771 0.14655244 0.06058466 0.06552857
-0.04606314 0.11427136 -0.009326995 0.011718134 0.09067995 0.08465312 0.0097904205 0.16822627
0.06628943 0.02448556 0.20785998 0.07598456 0.056778997 -0.104207724 -0.12125603 0.004001251
-0.02753398 0.0043347706 0.038059335 -0.05417014 -0.013690447 -0.08697906 -0.040464893 -0.10415133
-0.06743428 0.018406674 0.023443373 -0.094962254 -0.025546089 0.085551426 0.08524263 -0.087506205
-0.0026553012 0.04424483 0.07715598 -0.10461403 0.11463152 -0.07684222 0.033184234 -0.017948959
-0.04252496 -0.10560963 0.100777104 0.100691035 -0.14665765 -0.014623737 0.008827146 -0.016805535
-0.05936667 0.085881494 -0.028634299 -0.02915921 -0.089108646 0.05013183 -0.061367586 0.07077754
-0.025715772 -0.005866069 0.01901949 -0.080524035 -0.039135326 -0.084406145 0.029515643 -0.012796172
-0.14532302 -0.12130159 -0.029252507 -0.08929809 0.21336608 0.00056365435 -0.10275703 0.07606186
0.075213715 -0.14099047 -0.12147955 -0.08846795 -0.100591615 -0.13852137 0.019303376 0.036635347
-0.008108847 0.007980071 0.081044585 -0.058980033 0.018391475 0.063381806 0.028272932 0.073918775
0.031997345 -0.10540051 -0.082918085 -0.11613539 -0.08114086 0.062864065 0.0630979 -0.04841347
0.059440795 0.06109569 0.012023388 0.11100474 -0.063189015 0.059875038 -0.071236424 0.06202422
0.0027327326 0.081627816 0.107384324 -0.050179254 -0.051226463 -0.016126681 0.10397253 -0.04080718
0.057872616 0.010425665 0.024882961 0.09475827 -0.080644004 -0.045161087 0.036778215 0.08335963
-0.05680703 0.025171636 -0.055951916 -0.07735348 -0.11425962 -0.0648457 0.08057756 0.08180509
0.08896879 0.069557644 -0.018349359 0.033423875 -0.017371288 0.05294233 0.061735056 -0.06091203
-0.051589962 0.057442922 -0.09715816 -0.042741675 0.0148425335 0.03915357 -0.005186423 0.058951933
0.004494843 0.03710387 0.061876435 0.24597105 -0.06121205 -0.019078134 0.2980542 0.08229151
0.16380787 -0.023541227 0.47148174 -0.050145224 -0.06892066 0.107132226 0.0079416465 0.13145615
0.036702648 0.042490996 0.09097766 0.06688881 -0.07432162 0.32307148 0.31035462 -0.011272419
0.2332495 0.2833975 0.075448126 0.038578976 0.0760544 0.0026608533 -0.033860687 -0.10012134
0.15388933 -0.016063694 -0.1103753 -0.0039835563 0.20805071 0.29788876 -0.055700433 0.052124247
0.1704497 0.12796272 0.010108732 0.18465266 0.22852764 0.13003649 0.15987104 0.07627303
0.007024194 0.05458171 -0.015558256 0.010217427 0.122265406 -0.05304143 -0.0064586466 0.1421631
-0.0041899383 -0.059448518 -0.025795683 0.073270984 0.0400942 -0.03740417 -0.07758909 -0.0020424034
00000000: 3d25 e73b 1a02 adbd fa88 123e 8fe4 483e
00000010: 0289 11be 019c 713d a8f7 753e 634f 0abd
00000020: 1b95 593e ee32 e1bd 324a d13e 40bf edbd
00000030: 66ba c23c 8cc3 b9bb 25f8 6fbd 2d08 c9bc
00000040: 4b99 4f3d 2232 9a3b a8dc 753d f1c4 b53d
00000050: 9b66 a9bd 021e 903e 2f77 3a3e c18d 83bc
00000060: ac02 103d a949 453e 8dea ce3d 9359 98bd
00000070: 9cd8 e33d c076 b7bd 83bb 8cbd e3bc 26bd
00000080: ab7c 9d3d b9ff 79bd 2317 8b3d dcdf 40bd
00000090: a51a 2a3e e4bf a73e 6cb1 2abe 30cb 213d
000000a0: 097f 0ebd bfd8 173e 0347 eebd b6f0 2f3e
000000b0: d5b9 ed3d d811 163e 9f27 783d d833 863d
000000c0: b4ac 3cbd 1a07 ea3d 41d0 18bc 6bfd 3f3c
000000d0: 69b6 b93d 9d5e ad3d 0068 203c 8243 2c3e
000000e0: c1c2 873d f195 c83c 3fd9 543e cb9d 9b3d
000000f0: 1891 683d dc6a d5bd 1555 f8bd ed1c 833b
00000100: f18e e1bc b10a 8e3b 1be4 1b3d 82e1 5dbd
00000110: e64d 60bc 1422 b2bd 84be 25bd 4b4d d5bd
00000120: fc1a 8abd 98c9 963c 510c c03c 927b c2bd
00000130: 0846 d1bc 9635 af3d b093 ae3d 7436 b3bd
00000140: 9004 2ebb 113a 353d f403 9e3d e13f d6bd
00000150: eec3 ea3d 745f 9dbd 31ec 073d b209 93bc
00000160: a72e 2ebd dd49 d8bd 3a64 ce3d 1a37 ce3d
00000170: 6c2d 16be 6698 6fbc bc9f 103c c3ab 89bc
00000180: 772a 73bd a3e2 af3d 7a92 eabc 4cdf eebc
00000190: 987e b6bd 0957 4d3d 945c 7bbd d1f3 903d
000001a0: e2a9 d2bc 2738 c0bb c3ce 9b3c c9e9 a4bd
000001b0: 5d4c 20bd 21dd acbd caca f13c 09a7 51bc
000001c0: 8fcf 14be f86c f8bd f4a2 efbc ebe1 b6bd
000001d0: a37c 5a3e 34c2 133a 4772 d2bd 52c6 9b3d
000001e0: a609 9a3d ce5f 10be 45ca f8bd af2e b5bd
000001f0: fa02 cebd 8cd8 0dbe 1d22 9e3c f20e 163d
00000200: f8da 04bc d8be 023c b4fa a53d 0c95 71bd
00000210: b8a9 963c 52ce 813d a39c e73c ba62 973d
00000220: a60f 033d 39dc d7bd f5d0 a9bd 64d8 edbd
00000230: 2e2d a6bd e0be 803d 7939 813d 344d 46bd
00000240: 3178 733d 793f 7a3d bffd 443c 7456 e33d
00000250: 3e69 81bd 873f 753d 67e4 91bd 1c0d 7e3d
00000260: a517 333b 7c2c a73d 50ec db3d c388 4dbd
00000270: d7d2 51bd 1a1c 84bc 8def d43d 6e25 27bd
00000280: d60b 6d3d 69d0 2a3c 5ad7 cb3c a010 c23d
00000290: af28 a5bd d5fa 38bd c1a4 163d 74b8 aa3d
000002a0: 7dae 68bd bf34 ce3c d62d 65bd 806b 9ebd
000002b0: f300 eabd d3cd 84bd d905 a53d 6d89 a73d
000002c0: 4535 b63d 3d74 8e3d 6551 96bc 79e7 083d
000002d0: 3b4e 8ebc 0eda 583d e6dd 7c3d e57e 79bd
000002e0: ff4f 53bd 4549 6b3d dbfa c6bd e511 2fbd
000002f0: 192e 733c 7e5f 203d dff2 a9bb 9577 713d
00000300: 7a49 933b 3afa 173d 2572 7d3d d6df 7b3e
00000310: 7db9 7abd bf49 9cbc 8f9a 983e 7488 a83d
00000320: 40bd 273e 88d9 c0bc 0e66 f13e 1465 4dbd
00000330: 4626 8dbd 2468 db3d ae1d 023c 719c 063e
00000340: 8455 163d 0a0b 2e3d 7f52 ba3d 00fd 883d
00000350: ef35 98bd a069 a53e cde6 9e3e f4af 38bc
00000360: f5d8 6e3e 7a19 913e 8c84 9a3d fd04 1e3d
00000370: 69c2 9b3d b661 2e3b 81b1 0abd 6b0c cdbd
00000380: 2a95 1d3e 0298 83bc 720c e2bd 7e88 82bb
00000390: 3f0b 553e e084 983e 2326 64bd 3c80 553d
000003a0: 5e8a 2e3e a908 033e 189f 253c 9615 3d3e
000003b0: 2603 6a3e 4928 053e 3cb5 233e 0935 9c3d
000003c0: 362b e63b 1291 5f3d 0ee8 7ebc ff66 273c
000003d0: 4966 fa3d f841 59bd 0ea3 d3bb 3493 113e
000003e0: c04b 89bb 4a80 73bd 7851 d3bc 190f 963d
000003f0: d139 243d 1d35 19bd 07e7 9ebd d8d9 05bb

lstm.weight_ih_l1 f4 [256, 64]
-0.19958791 0.18381372 -0.1925155 0.07085086 0.14508727 -0.20347598 -0.3833383 0.22493139
-0.2931978 -0.23262422 0.12986542 -0.1359317 -0.22186892 0.27707267 0.23014261 0.14652114
0.05379434 0.2979017 -0.13930131 0.052387495 0.20404421 0.0793609 0.094956204 -0.012679025
0.17662077 -0.20187901 0.18772694 0.14342798 -0.30622137 -0.031774018 0.07342999 -0.09714766
0.2565271 0.07185839 -0.22850637 0.11861382 -0.31904188 0.18187547 0.0030359556 0.13228188
0.2165418 0.095595114 -0.11021369 0.34153745 -0.12423368 -0.29828823 0.32300955 0.110534064
0.20145598 0.13806562 0.118288204 -0.24310413 0.07578539 0.1347514 0.19273949 -0.33067006
-0.31028354 0.28429508 0.16674878 0.1207243 -0.28030404 0.13402493 -0.14452809 0.14926545
-0.08711008 -0.033298865 -0.09649611 0.09453777 -0.088488355 -0.025463894 -0.14682841 -0.026301023
-0.0035420218 -0.08905886 0.18743862 -0.06192553 -0.006376347 -0.06108536 -0.0031770014 0.071694314
0.06360282 -0.039187804 0.04221644 -0.068424866 -0.006561805 -0.030914744 0.19631127 0.09393743
0.024431398 -0.023391314 -0.03208584 0.09594052 0.05347194 -0.035382573 0.032014985 0.07258457
0.14543404 0.081718 0.10817828 0.017151656 -0.02261081 0.053833153 -0.0670209 -0.0048883604
0.15755002 -0.009643241 0.03181883 0.019873248 0.13686165 -0.14386635 -0.027115582 -0.014498264
0.028911253 -0.070944816 -0.09611094 -0.08928036 -0.024527833 -0.00299541 0.13726096 -0.07663751
0.006530529 -0.0786456 0.080072634 -0.016274573 -0.08116402 0.13464154 0.057011295 0.06328084
-0.11789864 0.05315765 -0.09168253 0.031434506 0.012670738 -0.11491929 -0.16735815 0.107925855
-0.13631691 -0.005047868 -0.041171294 -0.11054208 -0.12779994 0.050304364 0.06733143 -0.06373679
0.070757255 -0.06752829 0.10014934 -0.005940063 0.0980875 0.013304413 0.015411896 0.072289884
0.013390926 -0.15368232 -0.016351795 0.13875057 0.0069191004 -0.06818773 0.07181049 -0.0072837635
-0.036034543 -0.029763881 0.007417196 0.012159876 0.07021441 0.05095995 -0.07039152 0.12428631
-0.061174363 0.13515694 0.004438566 -0.08996775 0.033521757 -0.05600572 0.042481605 -0.0562352
0.0528385 0.102082305 -0.0067134206 -0.14124212 0.08895054 -0.010270463 0.103599474 -0.12662895
-0.053374324 -0.048599318 -0.07084768 -0.08017525 -0.13024677 -0.033956837 -0.044962633 -0.074445516
-0.16424038 0.0005197306 0.12710358 -0.086261615 0.091623515 -0.10618673 -0.24094473 0.025880102
-0.16787869 -0.15533908 -0.009356145 0.084221594 0.025834389 0.18546048 0.14608216 0.020514883
0.06973906 0.077571616 -0.07590163 0.14415267 -0.015848598 -0.028706906 0.08538076 -0.0125992345
0.15704425 -0.13635565 0.044280637 0.14416334 -0.038745187 -0.09019241 0.04607136 0.019104257
-0.0034054094 0.025187105 -0.14739163 0.107208304 -0.019448707 0.04178748 0.04381339 0.006183488
0.06672969 0.20224805 -0.17465562 0.23738985 -0.01285523 -0.16522065 0.13756645 0.080219276
0.02328007 0.047683053 -0.001673702 -0.048753545 0.11104155 0.004870743 -0.077670224 -0.119934455
-0.066914946 0.186216 -0.03679262 0.1042799 -0.12767908 0.18332641 -0.04662005 -0.046088446
00000000: c660 4cbe aa39 3c3e c922 45be 411a 913d
00000010: c291 143e 025c 50be eb44 c4be 6a54 663e
00000020: 061e 96be 0b35 6ebe 71fb 043e ae31 0bbe
00000030: 9b31 63be 78dc 8d3e 81aa 6b3e a309 163e
00000040: 7457 5c3d 9286 983e 01a5 0ebe 4594 563d
00000050: f7f0 503e f887 a23d 6678 c23d afbb 4fbc
00000060: 13dc 343e 5fb9 4ebe 7e3b 403e c9de 123e
00000070: 0cc9 9cbe 7925 02bd 7662 963d 5af5 c6bd
00000080: 8557 833e 7e2a 933d 93fd 69be cdeb f23d
00000090: 7559 a3be 903d 3a3e e2f6 463b e774 073e
000000a0: 22bd 5d3e 5fc7 c33d b7b7 e1bd ffdd ae3e
000000b0: 3a6e febd 3cb9 98be 8261 a53e af5f e23d
000000c0: 7a4a 4e3e 1361 0d3e 1641 f23d 4af0 78be
000000d0: 5f35 9b3d 45fc 093e 805d 453e 964d a9be
000000e0: 7cdd 9ebe 208f 913e 31c0 2a3e 4d3e f73d
000000f0: 0384 8fbe d53d 093e 2cff 13be 0bd9 183e
00000100: c566 b2bd 6464 08bd c19f c5bd 059d c13d
00000110: 6239 b5bd a899 d0bc 305a 16be 3e75 d7bc
00000120: 4421 68bb 7e64 b6bd e9ef 3f3e a0a5 7dbd
00000130: adf0 d0bb a434 7abd 3d35 50bb 78d4 923d
00000140: 3242 823d 6483 20bd 25eb 2c3d 5622 8cbd
00000150: 6904 d7bb eb40 fdbc d205 493e 4462 c03d
00000160: 5b24 c83c 249f bfbc 716c 03bd 777c c43d
00000170: 6505 5b3d 51ed 10bd 2522 033d 38a7 943d
00000180: a9ec 143e c45b a73d 938c dd3d a181 8c3c
00000190: 4e3a b9bc 2780 5c3d 4142 89bd 8a2e a0bb
000001a0: cb54 213e affe 1dbc 7654 023d 39cd a23c
000001b0: 7625 0c3e b351 13be 7f21 debc 208a 6dbc
000001c0: 4bd7 ec3c 844b 91bd d0d5 c4bd 9fd8 b6bd
000001d0: 98ee c8bc a44e 44bb 238e 0c3e 20f4 9cbd
000001e0: 0cfe d53b f210 a1bd 1ffd a33d 4152 85bc
000001f0: 5239 a6bd 79df 093e ad84 693d 6399 813d
00000200: d874 f1bd d6bb 593d 0dc4 bbbd 78c1 003d
00000210: ed98 4f3c ce5a ebbd ef5f 2bbe 3b08 dd3d
00000220: a996 0bbe 9668 a5bb 3ba3 28bd e363 e2bd
00000230: fddd 02be f30b 4e3d 10e5 893d 6f88 82bd
00000240: 2ee9 903d 464c 8abd 191b cd3d dca4 c2bb
00000250: 19e2 c83d c1fa 593c 2d82 7c3c b80c 943d
00000260: 9d65 5b3c e65e 1dbe 33f4 85bc a114 0e3e
00000270: 9fb9 e23b 02a6 8bbd 6111 933d a3ac eebb
00000280: f598 13bd 62d3 f3bc f30b f33b 373a 473c
00000290: 93cc 8f3d 61bb 503d 6e29 90bd d289 fe3d
000002a0: f891 7abd 9566 0a3e 6471 913b 0341 b8bd
000002b0: 1c4e 093d 4166 65bd 3101 2e3d e256 66bd
000002c0: 2f6d 583d 8710 d13d 41fc dbbb c6a1 10be
000002d0: b32b b63d 7245 28bc f62b d43d 05ab 01be
000002e0: 099f 5abd 1410 47bd 9718 91bd ec32 a4bd
000002f0: 695f 05be 5316 0bbd bd2a 38bd e476 98bd
00000300: a12e 28be 883e 083a 7127 023e eea9 b0bd
00000310: 1ca5 bb3d 6e78 d9bd 37ba 76be 8202 d43c
00000320: 64e8 2bbe 3511 1fbe 844a 19bc 5f7c ac3d
00000330: a4a2 d33c 5ae9 3d3e 9096 153e d40e a83c
00000340: 5ad3 8e3d dedd 9e3d 5072 9bbd c29c 133e
00000350: ebd4 81bc bf2a ebbc 1cdc ae3d 056d 4ebc
00000360: 35d0 203e d1a0 0bbe 9d5f 353d 8e9f 133e
00000370: 46b3 1ebd ccb6 b8bd 53b5 3c3d 8880 9c3c
00000380: 4a2d 5fbb 3055 ce3c d5ed 16be 0790 db3d
00000390: e552 9fbc 5929 2b3d ab75 333d db9e ca3b
000003a0: 93a9 883d 1d1a 4f3e ecd8 32be 5316 733e
000003b0: be9e 52bc 9a2f 29be 38de 0c3e 014a a43d
000003c0: d8b5 be3c 4e4f 433d 1f60 dbba ccb1 47bd
000003d0: c169 e33d c19a 9f3b 9111 9fbd 32a0 f5bd
000003e0: b40a 89bd 68af 3e3e dcb3 16bd b390 d53d
000003f0: 4ebe 02be ebb9 3b3e aaf4 3ebd 3dc7 3cbd

lstm.weight_hh_l1 f4 [256, 64]
0.024889652 0.10145717 0.14637606 0.21285358 -0.010707151 0.34568787 0.0759043 -0.054944128
0.019021744 -0.06620963 0.04830122 -0.008505629 0.2025418 0.19455782 0.081117705 -0.165227
0.0016324412 -0.004809159 -0.17104702 -0.15199243 -0.26738504 0.17995179 0.08930989 0.0070882305
0.03614891 -0.014965312 -0.10498863 -0.65506005 0.04257286 0.14963718 0.11989055 -0.025712002
-0.124806255 0.03609695 -0.04699948 0.08815824 -0.053346958 -0.14005409 -0.033085793 -0.037651405
-0.03679012 0.1020836 -0.052391566 0.1357352 -0.2783673 0.4439713 -0.33356285 0.039528824
-0.004870243 -0.08419226 -0.10385263 0.26924568 -0.32776645 -0.044335794 0.26185948 0.15328757
0.25488332 -0.14542897 0.016854838 -0.18803792 -0.117477015 -0.35779727 -0.015891418 0.010328138
-0.049058795 0.035136662 -0.1295837 -0.075906515 0.046631116 0.14806984 0.019020213 -0.14891784
-0.023019934 -0.038213372 0.11134174 -0.04207322 0.1385084 0.05063517 0.055019937 -0.039028585
-0.12598446 -0.03476745 0.02465941 -0.0040013944 0.1288933 -0.1440635 -0.044538267 0.16871525
0.17637639 0.12311265 -0.029826827 0.2315756 0.015971629 -0.062257033 0.109537184 0.059573732
-0.050522912 -0.09242535 -0.160988 -0.0054529123 -0.09214254 -0.06433261 -0.022648597 0.00050480297
-0.023898765 0.14307812 0.03299714 -0.056948636 0.04764638 0.04237275 0.16198416 -0.051410962
-0.060557023 -0.25858793 -0.18120721 -0.05429343 -0.13011356 0.14457445 -0.08014847 0.15201278
0.03536325 0.016411094 -0.15334564 -0.09451605 -0.20606434 0.032286502 -0.05550955 -0.14652982
0.0813767 0.032012124 0.11322975 -0.010435938 -0.050462265 0.13968343 -0.08975363 -0.057869256
0.022995032 0.07340831 -0.04269675 0.11512919 -0.036267012 0.08607348 0.11963355 -0.13413018
-0.03938147 0.07578486 -0.11617029 -0.036837224 -0.047767878 0.24695753 0.06934765 0.08256448
-0.121491425 -0.045019567 0.078853674 -0.14838424 0.18598945 -0.06541615 0.04100617 -0.08155248
-0.06982066 0.1168639 -0.05260776 -0.07689395 0.04196312 -0.087684214 -0.10305013 0.11111392
0.006679279 0.038121644 0.046385203 -0.031803705 -0.09661246 0.30923235 -0.10431219 0.052852515
-0.037013065 -0.13181561 0.09849469 0.093276046 -0.07237262 0.008168501 0.14079176 -0.06723484
0.2524518 0.017520757 -0.020740163 -0.05131331 -0.10093166 0.045300074 -0.036439605 -0.0072254306
0.08672343 0.04714171 0.061550688 -0.18982898 0.048334863 -0.14765604 0.010766696 0.15666364
0.07704883 0.04867613 -0.07742973 -0.115588956 0.12161022 -0.06091387 0.075692445 0.04266845
0.09824984 -0.07028823 -0.030305017 -0.08635243 -0.24524964 -0.057642877 0.15667178 -0.07070561
-0.12542987 -0.3191899 -0.03210635 -0.5219786 0.15522 0.09493068 0.14204322 -0.16632286
0.010271749 0.08618961 -0.17296502 0.03323666 -0.15756498 -0.08667537 0.12190751 0.19514681
-0.13305242 0.06834307 0.03391144 0.12899311 0.022761859 0.24143876 0.052174207 0.079961985
-0.011987658 0.1927473 -0.13228393 -0.058106754 0.08417381 -0.060856506 -0.015819173 0.08683481
0.050482225 -0.118825406 -0.17533445 -0.07594283 -0.022488816 -0.18371318 0.027983207 -0.10600348
00000000: 62e5 cb3c c7c8 cf3d 9be3 153e 4af6 593e
00000010: 0c6d 2fbc 00fe b03e b773 9b3d 180d 61bd
00000020: 7dd3 9b3c ea98 87bd 80d7 453d 325b 0bbc
00000030: 1e67 4f3e 2a3a 473e 0a21 a63d 4431 29be
00000040: a3f7 d53a 2696 9dbb f326 2fbe e7a3 1bbe
00000050: b1e6 88be 4845 383e 1be8 b63d 6344 e83b
00000060: e110 143d 1131 75bc 4704 d7bd 04b2 27bf
00000070: e160 2e3d 7d3a 193e 2d89 f53d faa1 d2bc
00000080: 6c9a ffbd 65da 133d 8782 40bd 4f8c b43d
00000090: 5782 5abd 576a 0fbe f884 07bd 5c38 1abd
000000a0: 3db1 16bd 3511 d13d 8a98 56bd 2bfe 0a3e
000000b0: 2986 8ebe 3550 e33e c0c8 aabe fae8 213d
000000c0: 8f96 9fbb fe6c acbd b0b0 d4bd 92da 893e
000000d0: 01d1 a7be 7399 35bd 7212 863e 6bf7 1c3e
000000e0: 1180 823e 55eb 14be 2813 8a3c 038d 40be
000000f0: ca97 f0bd 3431 b7be b82e 82bc 5a37 293c
00000100: e0f1 48bd 76eb 0f3d 97b1 04be e074 9bbd
00000110: 4500 3f3d 9f9f 173e 47d0 9b3c eb7d 18be
00000120: 4d94 bcbc a085 1cbd 2307 e43d f854 2cbd
00000130: 25d5 0d3e d366 4f3d 965c 613d 70dc 1fbd
00000140: 1202 01be 5068 0ebd 8802 ca3c 211e 83bb
00000150: 9bfc 033e 6285 13be c26d 36bd b1c3 2c3e
00000160: 039c 343e 7c22 fc3d 6457 f4bc 2722 6d3e
00000170: efd6 823c 3b01 7fbd 0855 e03d 9603 743d
00000180: 1df1 4ebd 8049 bdbd 0ada 24be 58ae b2bb
00000190: 3ab5 bcbd d1c0 83bd 8d89 b9bc c154 043a
000001a0: 58c7 c3bc 1283 123e 0228 073d f942 69bd
000001b0: da28 433d 0c8f 2d3d 2ddf 253e 4d94 52bd
000001c0: a40a 78bd a365 84be 628e 39be ca62 5ebd
000001d0: 7d3c 05be 530b 143e e224 a4bd 3da9 1b3e
000001e0: 0ed9 103d 8f70 863c a406 1dbe a191 c1bd
000001f0: 8802 53be da3e 043d fb5d 63bd ea0b 16be
00000200: d4a8 a63d 251f 033d 00e5 e73d 7ffb 2abc
00000210: 85b1 4ebd 2c09 0f3e c0d0 b7bd 5008 6dbd
00000220: 1460 bc3c 1957 963d cae2 2ebd dac8 eb3d
00000230: b88c 14bd 4b47 b03d 6f02 f53d 6c59 09be
00000240: 774e 21bd 1835 9b3d b0ea edbd a1e2 16bd
00000250: 40a8 43bd 6fe2 7c3e 2406 8e3d 9117 a93d
00000260: 7fd0 f8bd 7066 38bd 097e a13d 0af2 17be
00000270: 0574 3e3e e7f8 85bd 16f6 273d fd04 a7bd
00000280: 22fe 8ebd 5756 ef3d 3c7b 57bd 937a 9dbd
00000290: 85e1 2b3d c893 b3bd f20b d3bd b28f e33d
000002a0: dadd da3b 7125 1c3d 69fe 3d3d 9a44 02bd
000002b0: c1dc c5bd b453 9e3e a1a1 d5bd e17b 583d
000002c0: 039b 17bd acfa 06be 96b7 c93d 8307 bf3d
000002d0: 1938 94bd 2dd5 053c b72b 103e 6bb2 89bd
000002e0: 5d41 813e b187 8f3c 46e7 a9bc e82d 52bd
000002f0: 42b5 cebd 928c 393d b241 15bd 4ec3 ecbb
00000300: 0e9c b13d aa17 413d 931c 7c3d 8762 42be
00000310: c7fa 453d 2533 17be cc66 303c 6f6c 203e
00000320: c7cb 9d3d 9f60 473d 7a93 9ebd e7b9 ecbd
00000330: c70e f93d d280 79bd a404 9b3d 1dc5 2e3d
00000340: 3637 c93d 47f3 8fbd 3a42 f8bc 8bd9 b0bd
00000350: b922 7bbe f01a 6cbd 916e 203e 1ace 90bd
00000360: b070 00be dc6c a3be f381 03bd 64a0 05bf
00000370: fef1 1e3e 046b c23d c773 113e 8a50 2abe
00000380: d74a 283c 2e84 b03d be1d 31be 2a23 083d
00000390: b758 21be db82 b1bd a5aa f93d 91d4 473e
000003a0: e53e 08be 74f7 8b3d b9e6 0a3d c516 043e
000003b0: 1477 ba3c b93b 773e 9fb4 553d 1cc3 a33d
000003c0: e267 44bc 8c5f 453e 7075 07be 5901 6ebd
000003d0: 5263 ac3d ac44 79bd 3697 81bc 73d6 b13d
000003e0: 73c6 4e3d bc5a f3bd e08a 33be ea87 9bbd
000003f0: 773a b8bc 4f1f 3cbe 0a3d e53c 5a18 d9bd

lstm.bias_ih_l1 f4 [256]
0.085018426 -0.014395362 0.12796903 0.08347692 0.07673465 0.010947203 0.08703863 0.019396737
0.075219676 0.24114466 -0.052127454 0.050864115 -0.083367534 -0.034204885 -0.058422986 0.053973947
-0.12778965 -0.05216843 -0.01799638 -0.06461085 0.16999198 0.38647825 -0.048041627 -0.032271072
-0.031603105 0.22781482 0.024002261 0.21459138 0.24386558 0.058850758 0.13864377 0.004439694
0.48362854 0.15525906 -0.028087111 0.07903774 0.10609292 0.059322227 0.047665298 -0.0720576
-0.023381146 -0.054006364 0.12673618 0.046278916 0.072608225 0.4904069 0.20367698 0.053776123
-0.04551925 -0.057555933 0.09364325 0.064394414 0.01011463 0.07359983 0.005970068 -0.011501597
-0.090526976 0.013283147 0.06401543 0.040469628 -3.910415e-05 -0.07728575 -0.037657633 -0.01725819
-0.195863 -0.033390414 -0.09619382 -0.20527422 0.04412005 -0.11674886 -0.074295945 0.04711101
-0.13651082 -0.099218614 -0.013524514 0.012052209 0.048502948 -0.0107580265 0.003746084 -0.026666738
-0.115248404 -0.013884446 0.045091845 0.08152422 -0.0031404158 -0.03215343 -0.123502865 -0.084193826
0.06408634 -0.15690257 -0.05612831 -0.20075348 -0.1226417 -0.1039392 0.03059991 -0.004238999
-0.118756406 0.04780075 -0.10998417 -0.003949963 0.060560666 -0.009491671 0.018841801 0.036488965
0.038083896 0.037227735 -0.04062673 -0.018990226 -0.024897188 -0.10853478 -0.09121979 -0.075777814
0.03981086 -0.07305993 -0.034203034 0.044759125 0.034573663 -0.056794975 0.005543534 -0.09415512
-0.21024461 -0.13863412 -0.03014348 -0.17040785 -0.087973975 -0.03446361 -0.007933159 -0.09972719
-0.116713196 -0.011984756 -0.08704359 -0.05355911 0.13985878 0.17175491 -0.087479 -0.06218334
0.079637975 -0.028448429 -0.0335849 0.098502785 0.1366129 0.04338681 0.14348105 -0.05060235
-0.04643795 -0.08863369 0.037683055 -0.09611083 0.005948672 0.06876271 -0.041706298 -0.057606634
0.0038864186 -0.1377471 -0.13242239 -0.046849877 0.021021836 0.094304055 -0.08282834 -0.12815075
-0.049440835 0.027212223 0.04398282 0.14254457 -0.12585524 -0.039751567 -0.11127326 0.059159067
0.07456488 0.14095026 0.13847639 0.102497555 -0.06299683 0.062259216 0.020171437 -0.076001555
0.0118641425 -0.063465975 0.04933849 0.027316729 -0.05882056 -0.028008966 -0.011449091 0.06522399
0.14830934 -0.027425772 -0.11488052 0.106984 -0.028251298 0.030902099 0.07083171 -0.06576587
0.19946206 0.08457281 -0.08168792 0.017512342 0.093030356 0.024223788 -0.038147572 0.16153274
0.058529034 0.050910678 -0.005901442 0.13751033 0.034060888 -0.050444126 0.08835504 0.008150138
0.10798124 0.02809685 -0.10933991 0.11763371 0.06691013 0.46753237 -0.10208855 -0.15195782
0.03819306 0.25790787 0.0048496937 0.10232804 0.13636531 0.064721845 0.012706317 -0.0913203
0.58272034 -0.04732729 -0.10904616 0.11338144 0.047360267 -0.06831528 0.09707262 -0.13357984
-0.0013197784 -0.0019219345 -0.1078089 -0.06946377 0.18547834 0.35926744 0.04394114 0.11873834
-0.089702554 0.0062798527 -0.040016845 0.02361792 -0.047762666 -0.0018464329 -0.124773994 0.06626788
-0.17570302 0.027237292 0.06497842 -0.083073325 -0.117335625 0.03656392 -0.007807692 0.027125455
00000000: 241e ae3d 86da 6bbc 500a 033e f3f5 aa3d
00000010: 0e27 9d3d e65b 333c 4f41 b23d e8e5 9e3c
00000020: c60c 9a3d a0ee 763e 9983 55bd e456 503d
00000030: 99bc aabd 6c1a 0cbd f14c 6fbd c913 5d3d
00000040: 4adb 02be 90ae 55bd 256d 93bc b152 84bd
00000050: 6112 2e3e 7ae0 c53e 4cc7 44bd ac2e 04bd
00000060: 4272 01bd 4a48 693e 64a0 c43c d8bd 5b3e
00000070: e6b7 793e 7e0d 713d a2f8 0d3e da7a 913b
00000080: 299e f73e 3bfc 1e3e f116 e6bc 8ade a13d
00000090: 3f47 d93d ddfb 723d b03c 433d ef92 93bd
000000a0: d189 bfbc c735 5dbd 21c7 013e f68e 3d3d
000000b0: 9fb3 943d 9d16 fb3e b390 503e 5a44 5c3d
000000c0: 6572 3abd c5bf 6bbd 08c8 bf3d 38e1 833d
000000d0: d5b7 253c 82bb 963d 8fa0 c33b 3271 3cbc
000000e0: 3566 b9bd 8ea1 593c 861a 833d 7bc3 253d
000000f0: c303 24b8 fe47 9ebd e43e 1abd 0c61 8dbc
00000100: 4f90 48be 63c4 08bd 4401 c5bd 6833 52be
00000110: 3ab7 343d 071a efbd 7928 98bd 79f7 403d
00000120: 7ec9 0bbe 2133 cbbd ec95 5dbc a176 453c
00000130: 07ab 463d 6f42 30bc dc80 753b 3474 dabc
00000140: 5b07 ecbd 967b 63bc 3ab2 383d 2cf6 a63d
00000150: 6fcf 4dbb 51b3 03bd 12ef fcbd d06d acbd
00000160: b33f 833d 11ab 20be cce6 65bd 5292 4dbe
00000170: 922b fbbd 13de d4bd aaac fa3c 4de7 8abb
00000180: 8f36 f3bd b8ca 433d 613f e1bd b16e 81bb
00000190: 760e 783d f482 1bbc 1f5a 9a3c 7475 153d
000001a0: dcfd 1b3d 1c7c 183d 3768 26bd 6491 9bbc
000001b0: 30f5 cbbc 7c47 debd 71d1 babd 6631 9bbd
000001c0: b610 233d 72a0 95bd 7b18 0cbd 5855 373d
000001d0: 1d9d 0d3d d9a1 68bd 89a6 b53b 66d4 c0bd
000001e0: 5d4a 57be 1af6 0dbe 76ef f6bc 657f 2ebe
000001f0: b32b b4bd b729 0dbd 15fa 01bc c53d ccbd
00000200: 5407 efbd b65b 44bc e943 b2bd cc60 5bbd
00000210: 2437 0f3e 85e0 2f3e 3128 b3bd f5b3 7ebd
00000220: 3c19 a33d ae0c e9bc 5290 09bd d4bb c93d
00000230: 41e4 0b3e 5eb6 313d b2ec 123e 6944 4fbd
00000240: b835 3ebd 9485 b5bd 8c59 1a3d c1d5 c4bd
00000250: 14ed c23b 77d3 8c3d 39d4 2abd eff4 6bbd
00000260: 49b3 7e3b 930d 0dbe bc99 07be a8e5 3fbd
00000270: fc35 ac3c 7c22 c13d e8a1 a9bd f339 03be
00000280: 7982 4abd 2bec de3c 5427 343d 34f7 113e
00000290: 32e0 00be 8ad2 22bd 3ce3 e3bd c750 723d
000002a0: 79b5 983d 4455 103e c1cc 0d3e 3dea d13d
000002b0: 7b04 81bd 8503 7f3d 923e a53c b4a6 9bbd
000002c0: d261 423c 73fa 81bd 2817 4a3d 55c7 df3c
000002d0: d4ed 70bd 0f73 e5bc f894 3bbc 2894 853d
000002e0: 67de 173e 03ac e0bc 7a46 ebbd 6d1a db3d
000002f0: 446f e7bc 6626 fd3c 3710 913d 42b0 86bd
00000300: c83f 4c3e 8234 ad3d ff4b a7bd 0b76 8f3c
00000310: b386 be3d f770 c63c a140 1cbd d768 253e
00000320: 24bc 6f3d b787 503d e260 c1bb 82cf 0c3e
00000330: 6e83 0b3d 809e 4ebd 7df3 b43d 2888 053c
00000340: 4525 dd3d 5d2b e63c 9aed dfbd f1e9 f03d
00000350: 2e08 893d 6760 ef3e cd13 d1bd d59a 1bbe
00000360: 5370 1c3d 800c 843e 2eea 9e3b 5d91 d13d
00000370: 59a3 0b3e e38c 843d 282e 503c 2306 bbbd
00000380: 292d 153f 43da 41bd 9853 dfbd 8734 e83d
00000390: d7fc 413d e2e8 8bbd 03ce c63d 27c9 08be
000003a0: 6afc acba 6ce9 fbba eaca dcbd 0543 8ebd
000003b0: 09ee 3d3e e7f1 b73e a0fb 333d 162d f33d
000003c0: f9b5 b7bd 39c7 cd3b b4e8 23bd 5e7a c13c
000003d0: c9a2 43bd 0204 f2ba 8289 ffbd 74b7 873d
000003e0: 7eeb 33be be20 df3c 6813 853d 5922 aabd
000003f0: a94d f0bd 0dc4 153d abd7 ffbb 3436 de3c

lstm.bias_hh_l1 f4 [256]
0.22679916 -0.10130764 0.101041086 0.17607032 0.14326027 0.1806637 -0.055859532 0.15415952
-0.008001851 0.04787311 -0.116161786 0.10564764 -0.092337675 0.0064660595 -0.0052376366 -0.081742816
0.0967511 -0.07085206 0.106934085 0.026109416 0.025397683 0.5785171 -0.12813812 0.04362312
0.045904372 0.3166392 -0.0668818 0.17698297 0.20238656 -0.018594854 -0.057741974 -0.13573986
0.62660515 -8.43604e-05 0.11240191 -0.048777584 -0.0892247 0.031739224 0.022173932 0.034356497
0.005408056 0.04578257 0.061877847 -0.11541213 0.15140946 0.4987677 0.04021708 0.044715907
0.08965756 0.05806777 0.018844549 -0.123784885 0.05976115 -0.027623728 -0.101970226 -0.13572016
-0.15280026 0.12231617 0.12658688 0.007857972 -0.07570044 -0.040247545 0.0071179443 -0.11221644
-0.09702043 -0.10312015 -0.056120336 0.034278013 0.020837309 -0.038951654 -0.120619535 -0.1895199
-0.09414536 -0.15812534 0.013917548 0.031719174 0.12136374 -0.050850667 0.046425387 -0.15834874
0.07521964 0.009529493 -0.04667355 -0.08173898 0.037941586 -0.021550015 -0.19285274 -0.14423989
0.10219913 -0.15922128 0.064945675 -0.021671766 -0.11963644 -0.053993765 -0.03284417 0.09126707
-0.1681457 0.018675197 0.027424963 0.030533293 0.121561214 -0.09921473 -0.010117438 0.07984084
0.050719965 -0.043288693 0.03840139 -0.095617585 -0.10457965 -0.085644774 -0.020603778 -0.035764057
-0.011192426 -0.11244712 0.00985583 -0.02752034 0.032098792 0.032918718 0.07198916 -0.0016098012
-0.047956172 -0.13020062 0.06500754 0.046014078 -0.0661042 -0.11992957 0.010356845 -0.055935275
0.033105373 -0.10980893 0.018898249 -0.06302947 0.121682785 0.107093215 -0.08099021 -0.07976774
0.10413568 -0.0055610025 0.08481644 0.10143824 0.110702634 0.103819594 0.08848275 -0.07864794
-0.03944487 -0.14086674 -0.053696066 -0.07641477 -0.08223379 -0.1071763 0.008588109 0.083346784
0.03898377 -0.08750053 0.026566468 0.014059105 0.017606832 0.047212366 0.13676837 -0.12611014
0.07922112 -0.101269774 -0.1320456 -0.035909913 -0.06253087 -0.042256154 0.0014344166 0.019058362
0.05605004 0.12964012 -0.038058363 -0.018167527 -0.008835408 -0.030734045 0.010031021 0.08579066
-0.11713854 -0.08850789 -0.043742873 0.012377083 -0.11312364 0.08269855 -0.036761906 -0.03129158
0.09110135 0.031804007 0.062070966 -0.069476165 -0.042728275 -0.11541795 0.018599099 0.013514288
0.19744523 -0.09410596 0.061998688 0.046061896 0.08715949 0.022850022 -0.05359987 0.075283505
-0.122638635 0.18513054 0.08971091 -0.08374891 0.09438434 0.04000515 -0.03863952 -0.049487025
0.070226096 0.060004313 -0.07453194 0.035655998 0.09055488 0.4109127 -0.14370716 -0.00849912
-0.068753846 0.35936478 -0.085893676 0.24615546 0.18111461 0.01579964 -0.03278165 0.09221891
0.46002233 0.11952174 0.029720617 -0.079352885 -0.12061003 0.07378528 -0.07801544 0.10550862
-0.18549472 -0.09818102 -0.11168483 0.0797387 0.019453375 0.2190851 0.1507295 0.18876103
-0.03578385 -0.14634521 0.09167652 0.027039628 0.06676234 0.055394568 -0.11208774 -0.05609861
-0.12538627 0.09231309 0.034046352 -0.0146460375 -0.097766906 -0.113705106 -0.0008726139 -0.039152604
00000000: 0a3e 683e 617a cfbd a1ee ce3d c74b 343e
00000010: d2b2 123e e8ff 383e f7cc 64bd fedb 1d3e
00000020: 321a 03bc 9816 443d 3be6 edbd ca5d d83d
00000030: 891b bdbd 3de1 d33b 7ba0 abbb c768 a7bd
00000040: 7125 c63d e31a 91bd 4200 db3d 6ae3 d53c
00000050: cd0e d03c b219 143f a436 03be 28ae 323d
00000060: 3906 3c3d 891e a23e 53f9 88bd 063b 353e
00000070: 6c3e 4f3e 3c54 98bc d982 6cbd 64ff 0abe
00000080: 3269 203f a5ea b0b8 f932 e63d 01cb 47bd
00000090: 71bb b6bd fd00 023d 1ba6 b53c 66b9 0c3d
000000a0: 1036 b13b 8186 3b3d a073 7d3d 325d ecbd
000000b0: 150b 1b3e 7b5e ff3e aaba 243d 0728 373d
000000c0: 629e b73d 78d8 6d3d e25f 9a3c ee82 fdbd
000000d0: 1cc8 743d 284b e2bc c4d5 d0bd 3afa 0abe
000000e0: ac77 1cbe e680 fa3d fe9f 013e b9be 003c
000000f0: d508 9bbd 9cda 24bd a53d e93b bcd1 e5bd
00000100: a6b2 c6bd a830 d3bd 70de 65bd 1a67 0c3d
00000110: 01b3 aa3c c58b 1fbd 6007 f7bd 8111 42be
00000120: 48cf c0bd 9ceb 21be 6d06 643c f7eb 013d
00000130: 8d8d f83d ca48 50bd 8c28 3e3d 2c26 22be
00000140: c10c 9a3d 9721 1c3c c42c 3fbd c466 a7bd
00000150: a368 1b3d a889 b0bc 307b 45be 9fb3 13be
00000160: c74d d13d e70a 23be 3d02 853d fd88 b1bc
00000170: f303 f5bd 9128 5dbd 9c87 06bd 3bea ba3d
00000180: 632e 2cbe bafc 983c 51aa e03c f520 fa3c
00000190: 16f5 f83d 1831 cbbd 9cc3 25bc 9883 a33d
000001a0: bdbf 4f3d 7c4f 31bd c74a 1d3d 27d3 c3bd
000001b0: db2d d6bd 8766 afbd 41c9 a8bc 557d 12bd
000001c0: 7060 37bc ad4a e6bd 597a 213c 5672 e1bc
000001d0: 067a 033d c7d5 063d 0d6f 933d f7ff d2ba
000001e0: b16d 44bd 5053 05be ac22 853d 4279 3c3d
000001f0: a461 87bd a29d f5bd c2af 293c 631c 65bd
00000200: 8099 073d 81e3 e0bd 80d0 9a3c 9815 81bd
00000210: d334 f93d b053 db3d 32de a5bd 455d a3bd
00000220: 1645 d53d 1239 b6bb 3eb4 ad3d dabe cf3d
00000230: 10b8 e23d 5e9f d43d 7236 b53d 2c12 a1bd
00000240: f290 21bd 5f3f 10be 68f0 5bbd 597f 9cbd
00000250: 306a a8bd 3f7f dbbd 24b5 0c3c b8b1 aa3d
00000260: 72ad 1f3d 7a33 b3bd eca1 d93c 2958 663c
00000270: 343c 903c c161 413d 020d 0c3e 0423 01be
00000280: af3e a23d 8766 cfbd f636 07be 4616 13bd
00000290: 2f10 80bd ca14 2dbd 0903 bc3a 4820 9c3c
000002a0: ba94 653d 61c0 043e 16e3 1bbd 11d4 94bc
000002b0: 63c2 10bc f7c5 fbbc 2759 243c 03b3 af3d
000002c0: 55e6 efbd a043 b5bd ba2b 33bd 40c9 4a3c
000002d0: 5ead e7bd db5d a93d a793 16bd 9a2b 00bd
000002e0: 5893 ba3d eb44 023d 203e 7e3d 8549 8ebd
000002f0: d803 2fbd 3f60 ecbd 235d 983c 086b 5d3c
00000300: 152f 4a3e a0ba c0bd 56f2 7d3d 66ab 3c3d
00000310: ad80 b23d f82f bb3c 8a8b 5bbd 3d2e 9a3d
00000320: f729 fbbd dc92 3d3e 5bba b73d 8c84 abbd
00000330: 944c c13d 71dc 233d 7944 1ebd e8b2 4abd
00000340: b3d2 8f3d 15c7 753d 34a4 98bd 060c 123d
00000350: d674 b93d 2663 d23e f827 13be e53f 0bbc
00000360: d1ce 8cbd a9fe b73e 06e9 afbd 2d10 7c3e
00000370: 1c76 393e 3f6e 813c 0d46 06bd 45dd bc3d
00000380: 0c88 eb3e d0c7 f43d a778 f33c c483 a2bd
00000390: 6402 f7bd bd1c 973d 8fc6 9fbd e714 d83d
000003a0: 54f2 3dbe 2113 c9bd 04bb e4bd 0b4e a33d
000003b0: af5c 9f3c d857 603e d658 1a3e 924a 413e
000003c0: 1692 12bd 85db 15be e6c0 bb3d 3682 dd3c
000003d0: b2ba 883d 6ae5 623d 428e e5bd a8c7 65bd
000003e0: 4265 00be a50e bd3d 3074 0b3d eff5 6fbc
000003f0: 043a c8bd 39de e8bd 21c0 64ba 7b5e 20bd
